…
************Fold: 0
Emb Dim: 64
Transformer-FNET-64
=====================================================================================================================================================================
Layer (type:depth-idx)                   Input Shape               Output Shape              Kernel Shape              Param #                   Mult-Adds
=====================================================================================================================================================================
TransfomerBlock                          [2, 2, 21, 585]           [2, 3]                    --                        --                        --
├─ModuleList: 1-1                        --                        --                        --                        --                        --
│    └─MakePatches: 2-1                  [2, 1, 21, 585]           [2, 195, 64]              --                        --                        --
│    │    └─Unfold: 3-1                  [2, 1, 21, 585]           [2, 63, 195]              [21, 3]                   --                        --
│    │    └─Linear: 3-2                  [2, 195, 63]              [2, 195, 64]              --                        4,096                     8,192
│    │    └─PositionalEncoding: 3-3      [2, 195, 64]              [2, 195, 64]              --                        --                        --
│    └─MakePatches: 2-2                  [2, 1, 21, 585]           [2, 195, 64]              --                        --                        --
│    │    └─Unfold: 3-4                  [2, 1, 21, 585]           [2, 63, 195]              [21, 3]                   --                        --
│    │    └─Linear: 3-5                  [2, 195, 63]              [2, 195, 64]              --                        4,096                     8,192
│    │    └─PositionalEncoding: 3-6      [2, 195, 64]              [2, 195, 64]              --                        --                        --
├─FNET: 1-2                              [2, 390, 64]              [2, 390, 64]              --                        --                        --
│    └─LayerNorm: 2-3                    [2, 390, 64]              [2, 390, 64]              --                        128                       256
│    └─Sequential: 2-4                   [2, 390, 64]              [2, 390, 64]              --                        --                        --
│    │    └─Linear: 3-7                  [2, 390, 64]              [2, 390, 64]              --                        4,160                     8,320
│    │    └─ReLU: 3-8                    [2, 390, 64]              [2, 390, 64]              --                        --                        --
│    │    └─Dropout: 3-9                 [2, 390, 64]              [2, 390, 64]              --                        --                        --
│    │    └─Linear: 3-10                 [2, 390, 64]              [2, 390, 64]              --                        4,160                     8,320
│    └─LayerNorm: 2-5                    [2, 390, 64]              [2, 390, 64]              --                        128                       256
├─Sequential: 1-3                        [2, 64]                   [2, 3]                    --                        --                        --
│    └─Linear: 2-6                       [2, 64]                   [2, 64]                   --                        4,160                     8,320
│    └─ReLU: 2-7                         [2, 64]                   [2, 64]                   --                        --                        --
│    └─Linear: 2-8                       [2, 64]                   [2, 32]                   --                        2,080                     4,160
│    └─ReLU: 2-9                         [2, 32]                   [2, 32]                   --                        --                        --
│    └─Linear: 2-10                      [2, 32]                   [2, 3]                    --                        99                        198
=====================================================================================================================================================================
Total params: 23,107
Trainable params: 23,107
Non-trainable params: 0
Total mult-adds (Units.MEGABYTES): 0.05
=====================================================================================================================================================================
…
weighted avg       0.85      0.38      0.48       640

Emb Dim: 128
Transformer-FNET-128
=====================================================================================================================================================================
Layer (type:depth-idx)                   Input Shape               Output Shape              Kernel Shape              Param #                   Mult-Adds
=====================================================================================================================================================================
TransfomerBlock                          [2, 2, 21, 585]           [2, 3]                    --                        --                        --
├─ModuleList: 1-1                        --                        --                        --                        --                        --
│    └─MakePatches: 2-1                  [2, 1, 21, 585]           [2, 195, 128]             --                        --                        --
│    │    └─Unfold: 3-1                  [2, 1, 21, 585]           [2, 63, 195]              [21, 3]                   --                        --
│    │    └─Linear: 3-2                  [2, 195, 63]              [2, 195, 128]             --                        8,192                     16,384
│    │    └─PositionalEncoding: 3-3      [2, 195, 128]             [2, 195, 128]             --                        --                        --
│    └─MakePatches: 2-2                  [2, 1, 21, 585]           [2, 195, 128]             --                        --                        --
│    │    └─Unfold: 3-4                  [2, 1, 21, 585]           [2, 63, 195]              [21, 3]                   --                        --
│    │    └─Linear: 3-5                  [2, 195, 63]              [2, 195, 128]             --                        8,192                     16,384
│    │    └─PositionalEncoding: 3-6      [2, 195, 128]             [2, 195, 128]             --                        --                        --
├─FNET: 1-2                              [2, 390, 128]             [2, 390, 128]             --                        --                        --
│    └─LayerNorm: 2-3                    [2, 390, 128]             [2, 390, 128]             --                        256                       512
│    └─Sequential: 2-4                   [2, 390, 128]             [2, 390, 128]             --                        --                        --
│    │    └─Linear: 3-7                  [2, 390, 128]             [2, 390, 128]             --                        16,512                    33,024
│    │    └─ReLU: 3-8                    [2, 390, 128]             [2, 390, 128]             --                        --                        --
│    │    └─Dropout: 3-9                 [2, 390, 128]             [2, 390, 128]             --                        --                        --
│    │    └─Linear: 3-10                 [2, 390, 128]             [2, 390, 128]             --                        16,512                    33,024
│    └─LayerNorm: 2-5                    [2, 390, 128]             [2, 390, 128]             --                        256                       512
├─Sequential: 1-3                        [2, 128]                  [2, 3]                    --                        --                        --
│    └─Linear: 2-6                       [2, 128]                  [2, 64]                   --                        8,256                     16,512
│    └─ReLU: 2-7                         [2, 64]                   [2, 64]                   --                        --                        --
│    └─Linear: 2-8                       [2, 64]                   [2, 32]                   --                        2,080                     4,160
│    └─ReLU: 2-9                         [2, 32]                   [2, 32]                   --                        --                        --
│    └─Linear: 2-10                      [2, 32]                   [2, 3]                    --                        99                        198
=====================================================================================================================================================================
Total params: 60,355
Trainable params: 60,355
Non-trainable params: 0
Total mult-adds (Units.MEGABYTES): 0.12
=====================================================================================================================================================================
…
weighted avg       0.89      0.87      0.86       640

Emb Dim: 64
Transformer-MHA-64
=====================================================================================================================================================================
Layer (type:depth-idx)                   Input Shape               Output Shape              Kernel Shape              Param #                   Mult-Adds
=====================================================================================================================================================================
TransfomerBlock                          [2, 2, 21, 585]           [2, 3]                    --                        --                        --
├─ModuleList: 1-1                        --                        --                        --                        --                        --
│    └─MakePatches: 2-1                  [2, 1, 21, 585]           [2, 195, 64]              --                        --                        --
│    │    └─Unfold: 3-1                  [2, 1, 21, 585]           [2, 63, 195]              [21, 3]                   --                        --
│    │    └─Linear: 3-2                  [2, 195, 63]              [2, 195, 64]              --                        4,096                     8,192
│    │    └─PositionalEncoding: 3-3      [2, 195, 64]              [2, 195, 64]              --                        --                        --
│    └─MakePatches: 2-2                  [2, 1, 21, 585]           [2, 195, 64]              --                        --                        --
│    │    └─Unfold: 3-4                  [2, 1, 21, 585]           [2, 63, 195]              [21, 3]                   --                        --
│    │    └─Linear: 3-5                  [2, 195, 63]              [2, 195, 64]              --                        4,096                     8,192
│    │    └─PositionalEncoding: 3-6      [2, 195, 64]              [2, 195, 64]              --                        --                        --
├─TransformerEncoderLayer: 1-2           [2, 390, 64]              [2, 390, 64]              --                        --                        --
│    └─MultiheadAttention: 2-3           [2, 390, 64]              [2, 390, 64]              --                        16,640                    --
│    └─Dropout: 2-4                      [2, 390, 64]              [2, 390, 64]              --                        --                        --
│    └─LayerNorm: 2-5                    [2, 390, 64]              [2, 390, 64]              --                        128                       256
│    └─Linear: 2-6                       [2, 390, 64]              [2, 390, 2048]            --                        133,120                   266,240
│    └─Dropout: 2-7                      [2, 390, 2048]            [2, 390, 2048]            --                        --                        --
│    └─Linear: 2-8                       [2, 390, 2048]            [2, 390, 64]              --                        131,136                   262,272
│    └─Dropout: 2-9                      [2, 390, 64]              [2, 390, 64]              --                        --                        --
│    └─LayerNorm: 2-10                   [2, 390, 64]              [2, 390, 64]              --                        128                       256
├─Sequential: 1-3                        [2, 64]                   [2, 3]                    --                        --                        --
│    └─Linear: 2-11                      [2, 64]                   [2, 64]                   --                        4,160                     8,320
│    └─ReLU: 2-12                        [2, 64]                   [2, 64]                   --                        --                        --
│    └─Linear: 2-13                      [2, 64]                   [2, 32]                   --                        2,080                     4,160
│    └─ReLU: 2-14                        [2, 32]                   [2, 32]                   --                        --                        --
│    └─Linear: 2-15                      [2, 32]                   [2, 3]                    --                        99                        198
=====================================================================================================================================================================
Total params: 295,683
Trainable params: 295,683
Non-trainable params: 0
Total mult-adds (Units.MEGABYTES): 0.56
=====================================================================================================================================================================
…
weighted avg       0.96      0.96      0.95       640

Emb Dim: 128
Transformer-MHA-128
=====================================================================================================================================================================
Layer (type:depth-idx)                   Input Shape               Output Shape              Kernel Shape              Param #                   Mult-Adds
=====================================================================================================================================================================
TransfomerBlock                          [2, 2, 21, 585]           [2, 3]                    --                        --                        --
├─ModuleList: 1-1                        --                        --                        --                        --                        --
│    └─MakePatches: 2-1                  [2, 1, 21, 585]           [2, 195, 128]             --                        --                        --
│    │    └─Unfold: 3-1                  [2, 1, 21, 585]           [2, 63, 195]              [21, 3]                   --                        --
│    │    └─Linear: 3-2                  [2, 195, 63]              [2, 195, 128]             --                        8,192                     16,384
│    │    └─PositionalEncoding: 3-3      [2, 195, 128]             [2, 195, 128]             --                        --                        --
│    └─MakePatches: 2-2                  [2, 1, 21, 585]           [2, 195, 128]             --                        --                        --
│    │    └─Unfold: 3-4                  [2, 1, 21, 585]           [2, 63, 195]              [21, 3]                   --                        --
│    │    └─Linear: 3-5                  [2, 195, 63]              [2, 195, 128]             --                        8,192                     16,384
│    │    └─PositionalEncoding: 3-6      [2, 195, 128]             [2, 195, 128]             --                        --                        --
├─TransformerEncoderLayer: 1-2           [2, 390, 128]             [2, 390, 128]             --                        --                        --
│    └─MultiheadAttention: 2-3           [2, 390, 128]             [2, 390, 128]             --                        66,048                    --
│    └─Dropout: 2-4                      [2, 390, 128]             [2, 390, 128]             --                        --                        --
│    └─LayerNorm: 2-5                    [2, 390, 128]             [2, 390, 128]             --                        256                       512
│    └─Linear: 2-6                       [2, 390, 128]             [2, 390, 2048]            --                        264,192                   528,384
│    └─Dropout: 2-7                      [2, 390, 2048]            [2, 390, 2048]            --                        --                        --
│    └─Linear: 2-8                       [2, 390, 2048]            [2, 390, 128]             --                        262,272                   524,544
│    └─Dropout: 2-9                      [2, 390, 128]             [2, 390, 128]             --                        --                        --
│    └─LayerNorm: 2-10                   [2, 390, 128]             [2, 390, 128]             --                        256                       512
├─Sequential: 1-3                        [2, 128]                  [2, 3]                    --                        --                        --
│    └─Linear: 2-11                      [2, 128]                  [2, 64]                   --                        8,256                     16,512
│    └─ReLU: 2-12                        [2, 64]                   [2, 64]                   --                        --                        --
│    └─Linear: 2-13                      [2, 64]                   [2, 32]                   --                        2,080                     4,160
│    └─ReLU: 2-14                        [2, 32]                   [2, 32]                   --                        --                        --
│    └─Linear: 2-15                      [2, 32]                   [2, 3]                    --                        99                        198
=====================================================================================================================================================================
Total params: 619,843
Trainable params: 619,843
Non-trainable params: 0
Total mult-adds (Units.MEGABYTES): 1.11
=====================================================================================================================================================================
…
