…
************Fold: 0
Emb Dim: 64
Transformer-FNET-64
=====================================================================================================================================================================
Layer (type:depth-idx)                   Input Shape               Output Shape              Kernel Shape              Param #                   Mult-Adds
=====================================================================================================================================================================
TransfomerBlock                          [2, 64, 64]               [2, 3]                    --                        --                        --
├─MakePatches: 1-1                       [2, 64, 64]               [2, 256, 16]              --                        --                        --
│    └─Unfold: 2-1                       [2, 1, 64, 64]            [2, 16, 256]              [4, 4]                    --                        --
├─Linear: 1-2                            [2, 256, 16]              [2, 256, 64]              --                        1,088                     2,176
├─PositionalEncoding: 1-3                [2, 256, 64]              [2, 256, 64]              --                        --                        --
├─FNET: 1-4                              [2, 256, 64]              [2, 256, 64]              --                        --                        --
│    └─LayerNorm: 2-2                    [2, 256, 64]              [2, 256, 64]              --                        128                       256
│    └─Sequential: 2-3                   [2, 256, 64]              [2, 256, 64]              --                        --                        --
│    │    └─Linear: 3-1                  [2, 256, 64]              [2, 256, 64]              --                        4,160                     8,320
│    │    └─ReLU: 3-2                    [2, 256, 64]              [2, 256, 64]              --                        --                        --
│    │    └─Dropout: 3-3                 [2, 256, 64]              [2, 256, 64]              --                        --                        --
│    │    └─Linear: 3-4                  [2, 256, 64]              [2, 256, 64]              --                        4,160                     8,320
│    └─LayerNorm: 2-4                    [2, 256, 64]              [2, 256, 64]              --                        128                       256
├─Sequential: 1-5                        [2, 64]                   [2, 3]                    --                        --                        --
│    └─Linear: 2-5                       [2, 64]                   [2, 64]                   --                        4,160                     8,320
│    └─ReLU: 2-6                         [2, 64]                   [2, 64]                   --                        --                        --
│    └─Linear: 2-7                       [2, 64]                   [2, 32]                   --                        2,080                     4,160
│    └─ReLU: 2-8                         [2, 32]                   [2, 32]                   --                        --                        --
│    └─Linear: 2-9                       [2, 32]                   [2, 3]                    --                        99                        198
=====================================================================================================================================================================
Total params: 16,003
Trainable params: 16,003
Non-trainable params: 0
Total mult-adds (Units.MEGABYTES): 0.03
=====================================================================================================================================================================
…
weighted avg       0.99      0.76      0.85      3217

Emb Dim: 128
Transformer-FNET-128
=====================================================================================================================================================================
Layer (type:depth-idx)                   Input Shape               Output Shape              Kernel Shape              Param #                   Mult-Adds
=====================================================================================================================================================================
TransfomerBlock                          [2, 64, 64]               [2, 3]                    --                        --                        --
├─MakePatches: 1-1                       [2, 64, 64]               [2, 256, 16]              --                        --                        --
│    └─Unfold: 2-1                       [2, 1, 64, 64]            [2, 16, 256]              [4, 4]                    --                        --
├─Linear: 1-2                            [2, 256, 16]              [2, 256, 128]             --                        2,176                     4,352
├─PositionalEncoding: 1-3                [2, 256, 128]             [2, 256, 128]             --                        --                        --
├─FNET: 1-4                              [2, 256, 128]             [2, 256, 128]             --                        --                        --
│    └─LayerNorm: 2-2                    [2, 256, 128]             [2, 256, 128]             --                        256                       512
│    └─Sequential: 2-3                   [2, 256, 128]             [2, 256, 128]             --                        --                        --
│    │    └─Linear: 3-1                  [2, 256, 128]             [2, 256, 128]             --                        16,512                    33,024
│    │    └─ReLU: 3-2                    [2, 256, 128]             [2, 256, 128]             --                        --                        --
│    │    └─Dropout: 3-3                 [2, 256, 128]             [2, 256, 128]             --                        --                        --
│    │    └─Linear: 3-4                  [2, 256, 128]             [2, 256, 128]             --                        16,512                    33,024
│    └─LayerNorm: 2-4                    [2, 256, 128]             [2, 256, 128]             --                        256                       512
├─Sequential: 1-5                        [2, 128]                  [2, 3]                    --                        --                        --
│    └─Linear: 2-5                       [2, 128]                  [2, 64]                   --                        8,256                     16,512
│    └─ReLU: 2-6                         [2, 64]                   [2, 64]                   --                        --                        --
│    └─Linear: 2-7                       [2, 64]                   [2, 32]                   --                        2,080                     4,160
│    └─ReLU: 2-8                         [2, 32]                   [2, 32]                   --                        --                        --
│    └─Linear: 2-9                       [2, 32]                   [2, 3]                    --                        99                        198
=====================================================================================================================================================================
Total params: 46,147
Trainable params: 46,147
Non-trainable params: 0
Total mult-adds (Units.MEGABYTES): 0.09
=====================================================================================================================================================================
…
weighted avg       0.99      0.92      0.95      3217

Emb Dim: 64
Transformer-MHA-64
=====================================================================================================================================================================
Layer (type:depth-idx)                   Input Shape               Output Shape              Kernel Shape              Param #                   Mult-Adds
=====================================================================================================================================================================
TransfomerBlock                          [2, 64, 64]               [2, 3]                    --                        --                        --
├─MakePatches: 1-1                       [2, 64, 64]               [2, 256, 16]              --                        --                        --
│    └─Unfold: 2-1                       [2, 1, 64, 64]            [2, 16, 256]              [4, 4]                    --                        --
├─Linear: 1-2                            [2, 256, 16]              [2, 256, 64]              --                        1,088                     2,176
├─PositionalEncoding: 1-3                [2, 256, 64]              [2, 256, 64]              --                        --                        --
├─TransformerEncoderLayer: 1-4           [2, 256, 64]              [2, 256, 64]              --                        --                        --
│    └─MultiheadAttention: 2-2           [2, 256, 64]              [2, 256, 64]              --                        16,640                    --
│    └─Dropout: 2-3                      [2, 256, 64]              [2, 256, 64]              --                        --                        --
│    └─LayerNorm: 2-4                    [2, 256, 64]              [2, 256, 64]              --                        128                       256
│    └─Linear: 2-5                       [2, 256, 64]              [2, 256, 2048]            --                        133,120                   266,240
│    └─Dropout: 2-6                      [2, 256, 2048]            [2, 256, 2048]            --                        --                        --
│    └─Linear: 2-7                       [2, 256, 2048]            [2, 256, 64]              --                        131,136                   262,272
│    └─Dropout: 2-8                      [2, 256, 64]              [2, 256, 64]              --                        --                        --
│    └─LayerNorm: 2-9                    [2, 256, 64]              [2, 256, 64]              --                        128                       256
├─Sequential: 1-5                        [2, 64]                   [2, 3]                    --                        --                        --
│    └─Linear: 2-10                      [2, 64]                   [2, 64]                   --                        4,160                     8,320
│    └─ReLU: 2-11                        [2, 64]                   [2, 64]                   --                        --                        --
│    └─Linear: 2-12                      [2, 64]                   [2, 32]                   --                        2,080                     4,160
│    └─ReLU: 2-13                        [2, 32]                   [2, 32]                   --                        --                        --
│    └─Linear: 2-14                      [2, 32]                   [2, 3]                    --                        99                        198
=====================================================================================================================================================================
Total params: 288,579
Trainable params: 288,579
Non-trainable params: 0
Total mult-adds (Units.MEGABYTES): 0.54
=====================================================================================================================================================================
…
weighted avg       0.99      0.59      0.73      3217

Emb Dim: 128
Transformer-MHA-128
=====================================================================================================================================================================
Layer (type:depth-idx)                   Input Shape               Output Shape              Kernel Shape              Param #                   Mult-Adds
=====================================================================================================================================================================
TransfomerBlock                          [2, 64, 64]               [2, 3]                    --                        --                        --
├─MakePatches: 1-1                       [2, 64, 64]               [2, 256, 16]              --                        --                        --
│    └─Unfold: 2-1                       [2, 1, 64, 64]            [2, 16, 256]              [4, 4]                    --                        --
├─Linear: 1-2                            [2, 256, 16]              [2, 256, 128]             --                        2,176                     4,352
├─PositionalEncoding: 1-3                [2, 256, 128]             [2, 256, 128]             --                        --                        --
├─TransformerEncoderLayer: 1-4           [2, 256, 128]             [2, 256, 128]             --                        --                        --
│    └─MultiheadAttention: 2-2           [2, 256, 128]             [2, 256, 128]             --                        66,048                    --
│    └─Dropout: 2-3                      [2, 256, 128]             [2, 256, 128]             --                        --                        --
│    └─LayerNorm: 2-4                    [2, 256, 128]             [2, 256, 128]             --                        256                       512
│    └─Linear: 2-5                       [2, 256, 128]             [2, 256, 2048]            --                        264,192                   528,384
│    └─Dropout: 2-6                      [2, 256, 2048]            [2, 256, 2048]            --                        --                        --
│    └─Linear: 2-7                       [2, 256, 2048]            [2, 256, 128]             --                        262,272                   524,544
│    └─Dropout: 2-8                      [2, 256, 128]             [2, 256, 128]             --                        --                        --
│    └─LayerNorm: 2-9                    [2, 256, 128]             [2, 256, 128]             --                        256                       512
├─Sequential: 1-5                        [2, 128]                  [2, 3]                    --                        --                        --
│    └─Linear: 2-10                      [2, 128]                  [2, 64]                   --                        8,256                     16,512
│    └─ReLU: 2-11                        [2, 64]                   [2, 64]                   --                        --                        --
│    └─Linear: 2-12                      [2, 64]                   [2, 32]                   --                        2,080                     4,160
│    └─ReLU: 2-13                        [2, 32]                   [2, 32]                   --                        --                        --
│    └─Linear: 2-14                      [2, 32]                   [2, 3]                    --                        99                        198
=====================================================================================================================================================================
Total params: 605,635
Trainable params: 605,635
Non-trainable params: 0
Total mult-adds (Units.MEGABYTES): 1.08
=====================================================================================================================================================================
…
