…
************Fold: 0
Emb Dim: 64
Transformer-FNET-64
=====================================================================================================================================================================
Layer (type:depth-idx)                   Input Shape               Output Shape              Kernel Shape              Param #                   Mult-Adds
=====================================================================================================================================================================
TransfomerBlock                          [2, 2, 64, 64]            [2, 3]                    --                        --                        --
├─ModuleList: 1-1                        --                        --                        --                        --                        --
│    └─MakePatches: 2-1                  [2, 1, 64, 64]            [2, 256, 64]              --                        --                        --
│    │    └─Unfold: 3-1                  [2, 1, 64, 64]            [2, 16, 256]              [4, 4]                    --                        --
│    │    └─Linear: 3-2                  [2, 256, 16]              [2, 256, 64]              --                        1,088                     2,176
│    │    └─PositionalEncoding: 3-3      [2, 256, 64]              [2, 256, 64]              --                        --                        --
│    └─MakePatches: 2-2                  [2, 1, 64, 64]            [2, 256, 64]              --                        --                        --
│    │    └─Unfold: 3-4                  [2, 1, 64, 64]            [2, 16, 256]              [4, 4]                    --                        --
│    │    └─Linear: 3-5                  [2, 256, 16]              [2, 256, 64]              --                        1,088                     2,176
│    │    └─PositionalEncoding: 3-6      [2, 256, 64]              [2, 256, 64]              --                        --                        --
├─FNET: 1-2                              [2, 512, 64]              [2, 512, 64]              --                        --                        --
│    └─LayerNorm: 2-3                    [2, 512, 64]              [2, 512, 64]              --                        128                       256
│    └─Sequential: 2-4                   [2, 512, 64]              [2, 512, 64]              --                        --                        --
│    │    └─Linear: 3-7                  [2, 512, 64]              [2, 512, 64]              --                        4,160                     8,320
│    │    └─ReLU: 3-8                    [2, 512, 64]              [2, 512, 64]              --                        --                        --
│    │    └─Dropout: 3-9                 [2, 512, 64]              [2, 512, 64]              --                        --                        --
│    │    └─Linear: 3-10                 [2, 512, 64]              [2, 512, 64]              --                        4,160                     8,320
│    └─LayerNorm: 2-5                    [2, 512, 64]              [2, 512, 64]              --                        128                       256
├─Sequential: 1-3                        [2, 64]                   [2, 3]                    --                        --                        --
│    └─Linear: 2-6                       [2, 64]                   [2, 64]                   --                        4,160                     8,320
│    └─ReLU: 2-7                         [2, 64]                   [2, 64]                   --                        --                        --
│    └─Linear: 2-8                       [2, 64]                   [2, 32]                   --                        2,080                     4,160
│    └─ReLU: 2-9                         [2, 32]                   [2, 32]                   --                        --                        --
│    └─Linear: 2-10                      [2, 32]                   [2, 3]                    --                        99                        198
=====================================================================================================================================================================
Total params: 17,091
Trainable params: 17,091
Non-trainable params: 0
Total mult-adds (Units.MEGABYTES): 0.03
=====================================================================================================================================================================
…
weighted avg       0.99      0.95      0.97      1463

Emb Dim: 128
Transformer-FNET-128
=====================================================================================================================================================================
Layer (type:depth-idx)                   Input Shape               Output Shape              Kernel Shape              Param #                   Mult-Adds
=====================================================================================================================================================================
TransfomerBlock                          [2, 2, 64, 64]            [2, 3]                    --                        --                        --
├─ModuleList: 1-1                        --                        --                        --                        --                        --
│    └─MakePatches: 2-1                  [2, 1, 64, 64]            [2, 256, 128]             --                        --                        --
│    │    └─Unfold: 3-1                  [2, 1, 64, 64]            [2, 16, 256]              [4, 4]                    --                        --
│    │    └─Linear: 3-2                  [2, 256, 16]              [2, 256, 128]             --                        2,176                     4,352
│    │    └─PositionalEncoding: 3-3      [2, 256, 128]             [2, 256, 128]             --                        --                        --
│    └─MakePatches: 2-2                  [2, 1, 64, 64]            [2, 256, 128]             --                        --                        --
│    │    └─Unfold: 3-4                  [2, 1, 64, 64]            [2, 16, 256]              [4, 4]                    --                        --
│    │    └─Linear: 3-5                  [2, 256, 16]              [2, 256, 128]             --                        2,176                     4,352
│    │    └─PositionalEncoding: 3-6      [2, 256, 128]             [2, 256, 128]             --                        --                        --
├─FNET: 1-2                              [2, 512, 128]             [2, 512, 128]             --                        --                        --
│    └─LayerNorm: 2-3                    [2, 512, 128]             [2, 512, 128]             --                        256                       512
│    └─Sequential: 2-4                   [2, 512, 128]             [2, 512, 128]             --                        --                        --
│    │    └─Linear: 3-7                  [2, 512, 128]             [2, 512, 128]             --                        16,512                    33,024
│    │    └─ReLU: 3-8                    [2, 512, 128]             [2, 512, 128]             --                        --                        --
│    │    └─Dropout: 3-9                 [2, 512, 128]             [2, 512, 128]             --                        --                        --
│    │    └─Linear: 3-10                 [2, 512, 128]             [2, 512, 128]             --                        16,512                    33,024
│    └─LayerNorm: 2-5                    [2, 512, 128]             [2, 512, 128]             --                        256                       512
├─Sequential: 1-3                        [2, 128]                  [2, 3]                    --                        --                        --
│    └─Linear: 2-6                       [2, 128]                  [2, 64]                   --                        8,256                     16,512
│    └─ReLU: 2-7                         [2, 64]                   [2, 64]                   --                        --                        --
│    └─Linear: 2-8                       [2, 64]                   [2, 32]                   --                        2,080                     4,160
│    └─ReLU: 2-9                         [2, 32]                   [2, 32]                   --                        --                        --
│    └─Linear: 2-10                      [2, 32]                   [2, 3]                    --                        99                        198
=====================================================================================================================================================================
Total params: 48,323
Trainable params: 48,323
Non-trainable params: 0
Total mult-adds (Units.MEGABYTES): 0.10
=====================================================================================================================================================================
…
weighted avg       0.99      0.99      0.99      1463

Emb Dim: 64
Transformer-MHA-64
=====================================================================================================================================================================
Layer (type:depth-idx)                   Input Shape               Output Shape              Kernel Shape              Param #                   Mult-Adds
=====================================================================================================================================================================
TransfomerBlock                          [2, 2, 64, 64]            [2, 3]                    --                        --                        --
├─ModuleList: 1-1                        --                        --                        --                        --                        --
│    └─MakePatches: 2-1                  [2, 1, 64, 64]            [2, 256, 64]              --                        --                        --
│    │    └─Unfold: 3-1                  [2, 1, 64, 64]            [2, 16, 256]              [4, 4]                    --                        --
│    │    └─Linear: 3-2                  [2, 256, 16]              [2, 256, 64]              --                        1,088                     2,176
│    │    └─PositionalEncoding: 3-3      [2, 256, 64]              [2, 256, 64]              --                        --                        --
│    └─MakePatches: 2-2                  [2, 1, 64, 64]            [2, 256, 64]              --                        --                        --
│    │    └─Unfold: 3-4                  [2, 1, 64, 64]            [2, 16, 256]              [4, 4]                    --                        --
│    │    └─Linear: 3-5                  [2, 256, 16]              [2, 256, 64]              --                        1,088                     2,176
│    │    └─PositionalEncoding: 3-6      [2, 256, 64]              [2, 256, 64]              --                        --                        --
├─TransformerEncoderLayer: 1-2           [2, 512, 64]              [2, 512, 64]              --                        --                        --
│    └─MultiheadAttention: 2-3           [2, 512, 64]              [2, 512, 64]              --                        16,640                    --
│    └─Dropout: 2-4                      [2, 512, 64]              [2, 512, 64]              --                        --                        --
│    └─LayerNorm: 2-5                    [2, 512, 64]              [2, 512, 64]              --                        128                       256
│    └─Linear: 2-6                       [2, 512, 64]              [2, 512, 2048]            --                        133,120                   266,240
│    └─Dropout: 2-7                      [2, 512, 2048]            [2, 512, 2048]            --                        --                        --
│    └─Linear: 2-8                       [2, 512, 2048]            [2, 512, 64]              --                        131,136                   262,272
│    └─Dropout: 2-9                      [2, 512, 64]              [2, 512, 64]              --                        --                        --
│    └─LayerNorm: 2-10                   [2, 512, 64]              [2, 512, 64]              --                        128                       256
├─Sequential: 1-3                        [2, 64]                   [2, 3]                    --                        --                        --
│    └─Linear: 2-11                      [2, 64]                   [2, 64]                   --                        4,160                     8,320
│    └─ReLU: 2-12                        [2, 64]                   [2, 64]                   --                        --                        --
│    └─Linear: 2-13                      [2, 64]                   [2, 32]                   --                        2,080                     4,160
│    └─ReLU: 2-14                        [2, 32]                   [2, 32]                   --                        --                        --
│    └─Linear: 2-15                      [2, 32]                   [2, 3]                    --                        99                        198
=====================================================================================================================================================================
Total params: 289,667
Trainable params: 289,667
Non-trainable params: 0
Total mult-adds (Units.MEGABYTES): 0.55
=====================================================================================================================================================================
…
weighted avg       0.99      0.94      0.96      1463

Emb Dim: 128
Transformer-MHA-128
=====================================================================================================================================================================
Layer (type:depth-idx)                   Input Shape               Output Shape              Kernel Shape              Param #                   Mult-Adds
=====================================================================================================================================================================
TransfomerBlock                          [2, 2, 64, 64]            [2, 3]                    --                        --                        --
├─ModuleList: 1-1                        --                        --                        --                        --                        --
│    └─MakePatches: 2-1                  [2, 1, 64, 64]            [2, 256, 128]             --                        --                        --
│    │    └─Unfold: 3-1                  [2, 1, 64, 64]            [2, 16, 256]              [4, 4]                    --                        --
│    │    └─Linear: 3-2                  [2, 256, 16]              [2, 256, 128]             --                        2,176                     4,352
│    │    └─PositionalEncoding: 3-3      [2, 256, 128]             [2, 256, 128]             --                        --                        --
│    └─MakePatches: 2-2                  [2, 1, 64, 64]            [2, 256, 128]             --                        --                        --
│    │    └─Unfold: 3-4                  [2, 1, 64, 64]            [2, 16, 256]              [4, 4]                    --                        --
│    │    └─Linear: 3-5                  [2, 256, 16]              [2, 256, 128]             --                        2,176                     4,352
│    │    └─PositionalEncoding: 3-6      [2, 256, 128]             [2, 256, 128]             --                        --                        --
├─TransformerEncoderLayer: 1-2           [2, 512, 128]             [2, 512, 128]             --                        --                        --
│    └─MultiheadAttention: 2-3           [2, 512, 128]             [2, 512, 128]             --                        66,048                    --
│    └─Dropout: 2-4                      [2, 512, 128]             [2, 512, 128]             --                        --                        --
│    └─LayerNorm: 2-5                    [2, 512, 128]             [2, 512, 128]             --                        256                       512
│    └─Linear: 2-6                       [2, 512, 128]             [2, 512, 2048]            --                        264,192                   528,384
│    └─Dropout: 2-7                      [2, 512, 2048]            [2, 512, 2048]            --                        --                        --
│    └─Linear: 2-8                       [2, 512, 2048]            [2, 512, 128]             --                        262,272                   524,544
│    └─Dropout: 2-9                      [2, 512, 128]             [2, 512, 128]             --                        --                        --
│    └─LayerNorm: 2-10                   [2, 512, 128]             [2, 512, 128]             --                        256                       512
├─Sequential: 1-3                        [2, 128]                  [2, 3]                    --                        --                        --
│    └─Linear: 2-11                      [2, 128]                  [2, 64]                   --                        8,256                     16,512
│    └─ReLU: 2-12                        [2, 64]                   [2, 64]                   --                        --                        --
│    └─Linear: 2-13                      [2, 64]                   [2, 32]                   --                        2,080                     4,160
│    └─ReLU: 2-14                        [2, 32]                   [2, 32]                   --                        --                        --
│    └─Linear: 2-15                      [2, 32]                   [2, 3]                    --                        99                        198
=====================================================================================================================================================================
Total params: 607,811
Trainable params: 607,811
Non-trainable params: 0
Total mult-adds (Units.MEGABYTES): 1.08
=====================================================================================================================================================================
…
