…
************Fold: 0
Emb Dim: 64
Transformer-FNET-64
=====================================================================================================================================================================
Layer (type:depth-idx)                   Input Shape               Output Shape              Kernel Shape              Param #                   Mult-Adds
=====================================================================================================================================================================
TransfomerBlock                          [2, 21, 585]              [2, 18]                   --                        --                        --
├─MakePatches: 1-1                       [2, 21, 585]              [2, 195, 63]              --                        --                        --
│    └─Unfold: 2-1                       [2, 1, 21, 585]           [2, 63, 195]              [21, 3]                   --                        --
├─Linear: 1-2                            [2, 195, 63]              [2, 195, 64]              --                        4,096                     8,192
├─PositionalEncoding: 1-3                [2, 195, 64]              [2, 195, 64]              --                        --                        --
├─FNET: 1-4                              [2, 195, 64]              [2, 195, 64]              --                        --                        --
│    └─LayerNorm: 2-2                    [2, 195, 64]              [2, 195, 64]              --                        128                       256
│    └─Sequential: 2-3                   [2, 195, 64]              [2, 195, 64]              --                        --                        --
│    │    └─Linear: 3-1                  [2, 195, 64]              [2, 195, 64]              --                        4,160                     8,320
│    │    └─ReLU: 3-2                    [2, 195, 64]              [2, 195, 64]              --                        --                        --
│    │    └─Dropout: 3-3                 [2, 195, 64]              [2, 195, 64]              --                        --                        --
│    │    └─Linear: 3-4                  [2, 195, 64]              [2, 195, 64]              --                        4,160                     8,320
│    └─LayerNorm: 2-4                    [2, 195, 64]              [2, 195, 64]              --                        128                       256
├─Sequential: 1-5                        [2, 64]                   [2, 18]                   --                        --                        --
│    └─Linear: 2-5                       [2, 64]                   [2, 64]                   --                        4,160                     8,320
│    └─ReLU: 2-6                         [2, 64]                   [2, 64]                   --                        --                        --
│    └─Linear: 2-7                       [2, 64]                   [2, 32]                   --                        2,080                     4,160
│    └─ReLU: 2-8                         [2, 32]                   [2, 32]                   --                        --                        --
│    └─Linear: 2-9                       [2, 32]                   [2, 18]                   --                        594                       1,188
=====================================================================================================================================================================
Total params: 19,506
Trainable params: 19,506
Non-trainable params: 0
Total mult-adds (Units.MEGABYTES): 0.04
=====================================================================================================================================================================
…
weighted avg       0.92      0.72      0.78      1222

Emb Dim: 128
Transformer-FNET-128
=====================================================================================================================================================================
Layer (type:depth-idx)                   Input Shape               Output Shape              Kernel Shape              Param #                   Mult-Adds
=====================================================================================================================================================================
TransfomerBlock                          [2, 21, 585]              [2, 18]                   --                        --                        --
├─MakePatches: 1-1                       [2, 21, 585]              [2, 195, 63]              --                        --                        --
│    └─Unfold: 2-1                       [2, 1, 21, 585]           [2, 63, 195]              [21, 3]                   --                        --
├─Linear: 1-2                            [2, 195, 63]              [2, 195, 128]             --                        8,192                     16,384
├─PositionalEncoding: 1-3                [2, 195, 128]             [2, 195, 128]             --                        --                        --
├─FNET: 1-4                              [2, 195, 128]             [2, 195, 128]             --                        --                        --
│    └─LayerNorm: 2-2                    [2, 195, 128]             [2, 195, 128]             --                        256                       512
│    └─Sequential: 2-3                   [2, 195, 128]             [2, 195, 128]             --                        --                        --
│    │    └─Linear: 3-1                  [2, 195, 128]             [2, 195, 128]             --                        16,512                    33,024
│    │    └─ReLU: 3-2                    [2, 195, 128]             [2, 195, 128]             --                        --                        --
│    │    └─Dropout: 3-3                 [2, 195, 128]             [2, 195, 128]             --                        --                        --
│    │    └─Linear: 3-4                  [2, 195, 128]             [2, 195, 128]             --                        16,512                    33,024
│    └─LayerNorm: 2-4                    [2, 195, 128]             [2, 195, 128]             --                        256                       512
├─Sequential: 1-5                        [2, 128]                  [2, 18]                   --                        --                        --
│    └─Linear: 2-5                       [2, 128]                  [2, 64]                   --                        8,256                     16,512
│    └─ReLU: 2-6                         [2, 64]                   [2, 64]                   --                        --                        --
│    └─Linear: 2-7                       [2, 64]                   [2, 32]                   --                        2,080                     4,160
│    └─ReLU: 2-8                         [2, 32]                   [2, 32]                   --                        --                        --
│    └─Linear: 2-9                       [2, 32]                   [2, 18]                   --                        594                       1,188
=====================================================================================================================================================================
Total params: 52,658
Trainable params: 52,658
Non-trainable params: 0
Total mult-adds (Units.MEGABYTES): 0.11
=====================================================================================================================================================================
…
weighted avg       0.98      0.60      0.72      1222

Emb Dim: 64
Transformer-MHA-64
=====================================================================================================================================================================
Layer (type:depth-idx)                   Input Shape               Output Shape              Kernel Shape              Param #                   Mult-Adds
=====================================================================================================================================================================
TransfomerBlock                          [2, 21, 585]              [2, 18]                   --                        --                        --
├─MakePatches: 1-1                       [2, 21, 585]              [2, 195, 63]              --                        --                        --
│    └─Unfold: 2-1                       [2, 1, 21, 585]           [2, 63, 195]              [21, 3]                   --                        --
├─Linear: 1-2                            [2, 195, 63]              [2, 195, 64]              --                        4,096                     8,192
├─PositionalEncoding: 1-3                [2, 195, 64]              [2, 195, 64]              --                        --                        --
├─TransformerEncoderLayer: 1-4           [2, 195, 64]              [2, 195, 64]              --                        --                        --
│    └─MultiheadAttention: 2-2           [2, 195, 64]              [2, 195, 64]              --                        16,640                    --
│    └─Dropout: 2-3                      [2, 195, 64]              [2, 195, 64]              --                        --                        --
│    └─LayerNorm: 2-4                    [2, 195, 64]              [2, 195, 64]              --                        128                       256
│    └─Linear: 2-5                       [2, 195, 64]              [2, 195, 2048]            --                        133,120                   266,240
│    └─Dropout: 2-6                      [2, 195, 2048]            [2, 195, 2048]            --                        --                        --
│    └─Linear: 2-7                       [2, 195, 2048]            [2, 195, 64]              --                        131,136                   262,272
│    └─Dropout: 2-8                      [2, 195, 64]              [2, 195, 64]              --                        --                        --
│    └─LayerNorm: 2-9                    [2, 195, 64]              [2, 195, 64]              --                        128                       256
├─Sequential: 1-5                        [2, 64]                   [2, 18]                   --                        --                        --
│    └─Linear: 2-10                      [2, 64]                   [2, 64]                   --                        4,160                     8,320
│    └─ReLU: 2-11                        [2, 64]                   [2, 64]                   --                        --                        --
│    └─Linear: 2-12                      [2, 64]                   [2, 32]                   --                        2,080                     4,160
│    └─ReLU: 2-13                        [2, 32]                   [2, 32]                   --                        --                        --
│    └─Linear: 2-14                      [2, 32]                   [2, 18]                   --                        594                       1,188
=====================================================================================================================================================================
Total params: 292,082
Trainable params: 292,082
Non-trainable params: 0
Total mult-adds (Units.MEGABYTES): 0.55
=====================================================================================================================================================================
…
weighted avg       0.99      0.98      0.98      1222

Emb Dim: 128
Transformer-MHA-128
=====================================================================================================================================================================
Layer (type:depth-idx)                   Input Shape               Output Shape              Kernel Shape              Param #                   Mult-Adds
=====================================================================================================================================================================
TransfomerBlock                          [2, 21, 585]              [2, 18]                   --                        --                        --
├─MakePatches: 1-1                       [2, 21, 585]              [2, 195, 63]              --                        --                        --
│    └─Unfold: 2-1                       [2, 1, 21, 585]           [2, 63, 195]              [21, 3]                   --                        --
├─Linear: 1-2                            [2, 195, 63]              [2, 195, 128]             --                        8,192                     16,384
├─PositionalEncoding: 1-3                [2, 195, 128]             [2, 195, 128]             --                        --                        --
├─TransformerEncoderLayer: 1-4           [2, 195, 128]             [2, 195, 128]             --                        --                        --
│    └─MultiheadAttention: 2-2           [2, 195, 128]             [2, 195, 128]             --                        66,048                    --
│    └─Dropout: 2-3                      [2, 195, 128]             [2, 195, 128]             --                        --                        --
│    └─LayerNorm: 2-4                    [2, 195, 128]             [2, 195, 128]             --                        256                       512
│    └─Linear: 2-5                       [2, 195, 128]             [2, 195, 2048]            --                        264,192                   528,384
│    └─Dropout: 2-6                      [2, 195, 2048]            [2, 195, 2048]            --                        --                        --
│    └─Linear: 2-7                       [2, 195, 2048]            [2, 195, 128]             --                        262,272                   524,544
│    └─Dropout: 2-8                      [2, 195, 128]             [2, 195, 128]             --                        --                        --
│    └─LayerNorm: 2-9                    [2, 195, 128]             [2, 195, 128]             --                        256                       512
├─Sequential: 1-5                        [2, 128]                  [2, 18]                   --                        --                        --
│    └─Linear: 2-10                      [2, 128]                  [2, 64]                   --                        8,256                     16,512
│    └─ReLU: 2-11                        [2, 64]                   [2, 64]                   --                        --                        --
│    └─Linear: 2-12                      [2, 64]                   [2, 32]                   --                        2,080                     4,160
│    └─ReLU: 2-13                        [2, 32]                   [2, 32]                   --                        --                        --
│    └─Linear: 2-14                      [2, 32]                   [2, 18]                   --                        594                       1,188
=====================================================================================================================================================================
Total params: 612,146
Trainable params: 612,146
Non-trainable params: 0
Total mult-adds (Units.MEGABYTES): 1.09
=====================================================================================================================================================================
…
